discriminator_stampone.pth (torch, 552022 bytes, 9 tensors)

net.0.weight f4 [64, 3, 4, 4]
00000000: 428b 7dbe 17a8 c43d d7a2 bbbe de3e 07bf
00000010: d1d0 42be b64d 163e 23fa cbbb 6787 99bd
00000020: 4933 d9bc c543 a13d 05f6 b23d f80f 8ebd
00000030: 1ca1 a6bd 1bc6 523c 923a 803e 1f06 4cbe
00000040: d235 83be 48db 223e 519d ccbe 15b3 9fbe
00000050: e990 85bd 4667 a13e 2d9c 073e 1546 0b3e
00000060: 294a 73bc aa1d 233d 91f4 c63e c318 bf3d
00000070: 7162 b9bd ca45 8e3d 71b2 253f 76d2 e1bc
00000080: 845e ecbe 68e1 fc3d 8c6c 2abe cf3c 89be
00000090: 5952 15bd f060 df3e d01f d13e 4237 943e
000000a0: 4382 a33d 7260 393e 5721 a03e e3d6 87bd
000000b0: 35a0 1abe 6e36 bf3d 7f0f 103f 6581 60bb
000000c0: 931a 793c fab7 953d c3d7 ac3d efcd a3bc
000000d0: 5f2b 5c3c a426 93bd 8c85 14be 5550 fc3d
000000e0: f3ef 09bd ee83 f23c 1e94 b7be d63b 203d
000000f0: 205c 9c3d ef2c 363e 9cce 07bd daa7 023e
00000100: bd77 eb3d 5c88 1e3e b690 613e 0c90 a63d
00000110: 4c71 473d 24e8 ec3c aef8 94be 0160 873d
00000120: 2187 b53d 3769 103d fd66 22bf 6c17 1ebd
00000130: 5a43 863e 108f 2b3e 7c3e 363d dfc5 593e
00000140: 6fb4 bb3d c74b 513e 515e e9bd 9535 dc3d
00000150: 0279 e53d e26c aebe 9556 77bf b3b7 5bbd
00000160: a0ac 09bb 7eff 18bf dc44 b8bf 6eb1 b6be
00000170: c807 113e 6274 3cbe c755 00bf 2b9e 863d
00000180: c76e cdbe d95f 08bf ef18 c8be 7d9d 27bf
00000190: a3f2 80be fd45 b2be 1ef1 0fbe abd7 b2be
000001a0: f962 f0bc 13f5 063f a9eb 163f be6e 97be
000001b0: 400c d53d 8efd c33e bd30 093f 202f 9e3e
000001c0: dc44 ec3d 5720 87be 5317 373e b26b e0bd
000001d0: ac58 933e ae87 6cbe 23c1 7c3e 18b7 9f3e
000001e0: d307 47be c67d 203e 8aab 8f3e ef63 b2bc
000001f0: 21d3 ca3d 1adc 87be f761 53be a575 abbd
00000200: 6cf9 bc3e e476 043f 1359 9b3e 7cf8 f73e
00000210: c2e1 d73e 170c 473d 4715 3b3e f838 fd3e
00000220: 4a6a 32be 86ca eebd f456 a0be cad8 39be
00000230: 8758 07bd 031c 22bf f5cf 22bf d07c 39be
00000240: f40f b0be a86e b1be 6da4 a5be 84a3 2bbe
00000250: 0a61 4cbe b080 84be 9459 86be e81c a6be
00000260: a8d3 50be f0c2 88be a0e7 03bd 6599 8cbe
00000270: e837 88be d511 87be 9938 a3be 4584 84bc
00000280: 71b7 ec3d 27c6 6f3d 88ed e73c 7e7a 0bbd
00000290: ba44 143e 1cf3 1d3d 32bd 803c 61e9 7dbc
000002a0: 1d57 063d c011 1f3e fed5 133e 2a3e 203d
000002b0: 2dce 0c3d 294e c33d 4e99 f73b 4129 b1bc
000002c0: bb2b 013e 4fb8 013e 771f 8b3e a52d 05bd
000002d0: 3013 cdbb e0c2 3a3d 8be8 463e 5403 dc3c
000002e0: 2bfa 1abc 7235 8cbc f959 7a3e ae43 ddbd
000002f0: 5178 203d 0b59 873c eb3e a13e fda0 6bbc
00000300: ba6e e33e 8602 2e3e 4fd7 e3be 7f89 8bbe
00000310: 896a f83e 7da8 2abd d968 ddbe f469 4fbd
00000320: be9c 523f b7d7 013e 9dcc 983e c5b2 f9be
00000330: 14a1 993e 6d40 e23e 39bc 3abf f5c1 a3be
00000340: c9f9 143d 61bf c2be c15a 30be 97c4 1c3e
00000350: e0e7 c3be ecf9 80bf c673 383e 413c ea3e
00000360: 9e07 ce3d cfd4 3cbf f893 923f 561d 20be
00000370: 926f 32bd bf84 15be 4191 8dbe c088 f63e
00000380: e1da 053e eccb 663e e4f6 293e afe6 843e
00000390: 3eab c2bd d2e0 d9be 2a14 213e e125 c73e
000003a0: 2034 49be 883e 26bf b091 393f 3fc1 f0be
000003b0: 73d0 8ebd daed 5b3e 692c 89be 17bf 673e
000003c0: e71c 7fbe e2ec 3e3e 9548 473e 4937 00bf
000003d0: 6764 1bbf 0669 b0be 829a 063e fd8d b7be
000003e0: 7d9e de3e e4f3 2a3e 5326 033e 643b b0be
000003f0: a58f e73e 1347 893e 77d9 053f c167 383e
-0.24760154 0.09602373 -0.36647674 -0.528303 -0.1902497 0.14678082 -0.006224887 -0.07496529
-0.026513712 0.07874254 0.08738331 -0.069366395 -0.08136198 0.012864615 0.25044686 -0.1992421
-0.25627 0.15903962 -0.39963773 -0.31191316 -0.0652178 0.31524104 0.1324317 0.13600953
-0.014849224 0.03982321 0.38858464 0.09330895 -0.09051979 0.06946905 0.64725405 -0.027566176
-0.4616586 0.1234768 -0.1664297 -0.26804206 -0.036455486 0.43628645 0.40844584 0.28948408
0.0798383 0.18103197 0.31275436 -0.06632783 -0.15100177 0.093365535 0.56273645 -0.0034256813
0.01520409 0.07310481 0.08439591 -0.019995658 0.013438075 -0.071851045 -0.14504069 0.123200096
-0.0336761 0.029603925 -0.35855192 0.039119564 0.07634759 0.17790578 -0.033156022 0.12759343
0.11497448 0.15481704 0.22027859 0.081329435 0.048692033 0.028919287 -0.29095978 0.06610108
0.088636644 0.03525659 -0.634384 -0.038596556 0.2622326 0.16753793 0.044493183 0.21266888
0.09165274 0.20439063 -0.113949426 0.107524075 0.11204721 -0.34067446 -0.9661649 -0.053641986
-0.0021007434 -0.5976485 -1.4396014 -0.35682243 0.14163125 -0.18403772 -0.50130886 0.06573137
-0.4012358 -0.5327125 -0.39081523 -0.65474683 -0.25185117 -0.34819022 -0.14056823 -0.34930167
-0.029344069 0.52717704 0.5895334 -0.29576677 0.10402727 0.38279384 0.53589994 0.3089533
0.115365714 -0.2639186 0.17879991 -0.10958041 0.2877859 -0.23098633 0.24683051 0.31194377
-0.19436578 0.15672979 0.2806056 -0.021776168 0.09903551 -0.26535112 -0.2064284 -0.08372048
0.36909044 0.5174391 0.30341396 0.48431766 0.42164427 0.048595514 0.18269835 0.49457526
-0.17423359 -0.11659722 -0.3131634 -0.18149105 -0.03304341 -0.6332399 -0.6359857 -0.18114018
-0.3438717 -0.34654737 -0.3235201 -0.16761595 -0.19958892 -0.2587943 -0.26240218 -0.3244393
-0.2039324 -0.26711226 -0.032203317 -0.2746078 -0.26605153 -0.26380792 -0.31879118 -0.016176352
0.11558426 0.058538582 0.028311506 -0.034052365 0.14479342 0.038561925 0.015715215 -0.015497536
0.03279792 0.15534115 0.144371 0.039121784 0.034376312 0.09536392 0.007556117 -0.021626117
0.12614338 0.12667964 0.27172443 -0.032514233 -0.006258391 0.045596004 0.19424646 0.026857056
-0.009459059 -0.017115328 0.24448384 -0.108039245 0.039177243 0.016521951 0.31493315 -0.014381644
0.44420415 0.1699315 -0.44500205 -0.2725334 0.4851878 -0.04166459 -0.43244055 -0.050638154
0.8227042 0.12679945 0.29843608 -0.48769203 0.30005705 0.44189778 -0.72943455 -0.31983915
0.036371026 -0.38036636 -0.1722212 0.15309368 -0.38262844 -1.007627 0.18012914 0.45749095
0.100600466 -0.7376222 1.1451406 -0.15636191 -0.043563433 -0.1460142 -0.27649882 0.48151207
0.13071777 0.22538728 0.16598088 0.25957248 -0.09505318 -0.42554337 0.15730348 0.38896087
-0.1964879 -0.64939165 0.72487926 -0.47022435 -0.06973352 0.21477452 -0.26791695 0.22631489
-0.24913369 0.18645051 0.19461282 -0.5008436 -0.60700077 -0.34455127 0.13144878 -0.35850516
0.43480292 0.166946 0.12807588 -0.3442031 0.4522678 0.26812038 0.5228495 0.18008329

net.0.bias f4 [64]
00000000: 5fa0 8fbf fdca 023c 6413 a53e d6bc 8bbf
00000010: fa7f 913e c127 b23f 0f06 bd3f c0eb dc3e
00000020: cb51 063d fa96 823b be34 2340 bc11 793e
00000030: 697d 8dbe 9953 e23b 8d51 733c 2100 22b9
00000040: f81e dd39 0d71 9f3e c6d2 2d3c 231c 873f
00000050: a0be a1bc 1cfe 033e b776 c23e 65ee 05bd
00000060: a1ac 07bf 1046 523e b3e3 3ebb 3f05 9e3e
00000070: 0869 653e 12f3 c8bc 05cb 1f3d 0250 efbd
00000080: 8c5d d63d 049b 903e 3411 57be 2962 f83e
00000090: 2631 f6bc 76ae 073f 7a64 91bd 936c 4b3e
000000a0: 3e84 4ebe 1585 613e 6920 243f 20d5 943e
000000b0: 450d a63d 710b a53c bd73 8bbf a444 123e
000000c0: 8b5e 0f3e b693 e8bf 5db9 bdbc a82e 133e
000000d0: ca6a b53d daca da3d 35ca cdbf 6970 c8be
000000e0: c8aa 183f cb3e 17bf 7a80 1640 96db 753e
000000f0: 3e05 953e df3a 9fbf 017e 433f 8e83 033e
-1.1220816 0.0079829665 0.32241356 -1.0917003 0.2841795 1.3918382 1.4767474 0.43148613
0.032792848 0.003985283 2.5500941 0.24323171 -0.27634743 0.0069069383 0.014850986 -0.00015449572
0.00042175478 0.31140938 0.010609334 1.0555462 -0.019744217 0.12889904 0.37981197 -0.032698054
-0.52997786 0.20534539 -0.0029127419 0.30863377 0.22403347 -0.024529967 0.039011974 -0.11685182
0.104670614 0.28243268 -0.21002656 0.4851239 -0.030052733 0.5300058 -0.070992425 0.19865637
-0.20167634 0.22023423 0.64111954 0.2906885 0.08108 0.020147057 -1.0894696 0.14283997
0.14000909 -1.8170078 -0.023159677 0.14373267 0.08858259 0.10683222 -1.6077334 -0.39148262
0.5963559 -0.5908019 2.3515916 0.24009547 0.29105562 -1.2439841 0.7636414 0.12843153

net.2.weight f4 [128, 64, 4, 4]
00000000: 7c34 a0be 5214 11bf 4f61 103e c055 973e
00000010: adb1 39be 9545 c1be 180f a73e f6be 443e
00000020: c322 cbbd ef1f dcbe 4a1f 863e 97ee 813e
00000030: e06c 9cbe 0d59 57bf 48b4 d13c 0de9 193d
00000040: 590c 8c3d 92ad c73d 7f6c 993e 1e5a 9e3e
00000050: 4c5b 76be 27f6 c5bd a204 7c3e 8ffa c73e
00000060: 6af1 dcbe 450d bbbd d580 293d c5d4 ac3e
00000070: 1416 ccbe f86e eabd 870b de3d c743 db3e
00000080: 2b2c 86be f293 16be 88cf c23d b4bb 3e3e
00000090: 6289 09bd 86bf 10bd df95 45be 7cd9 3a3e
000000a0: 5afd 51be c8bb 8abe 2c21 b93c 24dd 4a3d
000000b0: 42e0 99be 8e0e c0be e263 ecbe 6163 22be
000000c0: 4364 35bf bf64 26bf 93e0 29bf 5ea5 1cbf
000000d0: c1f6 02bf ca78 f6be 957d 03bf f040 e5be
000000e0: 7435 d9be ba20 eebe c37c e9be 5eae d7be
000000f0: 2179 04bf f444 f2be 7d67 0abf 5677 edbe
00000100: 89e9 4c3e c09f 313e a871 70bc dc0f 98bf
00000110: 3edc df3d 6ee4 24be 2dfa a53e b11a 38bf
00000120: d5a1 853e f20d 69bd 7d1e 223e b28f 45bf
00000130: c99f dd3e 0e7a 483c f126 f33e d352 20bd
00000140: 9eee f4be e3e9 a2be fa75 0cbc d7ea 36be
00000150: 3f2a cfbe a3ce a2be d072 893e 382d a6be
00000160: 09cc 09bf 1d67 87be 3934 86be 77b6 24bf
00000170: 919c cb3d a551 2b3d 141b 4dbb a12f 143e
00000180: ae83 5c3e 8705 203f 4ed8 c6bc 7281 483e
00000190: 2b2e 36be 1986 173f 9dd8 02bf cbd7 e13d
000001a0: e596 c7be bc74 623f b74b 9dbe fa12 adbd
000001b0: 4812 fdbe f223 c73e f120 3ebf 6184 d43c
000001c0: 747c 3abe 73f6 97be d343 80be 3e40 c7be
000001d0: 62c9 c83d 038c 62bd cf6f 453e f891 debe
000001e0: 9635 d43d 0c8c a13d 3a9a 823e a427 063f
000001f0: f3d8 ce3e c0bb 3b3e d587 803e f383 f93e
00000200: 8b04 c3be c68c f8be 675c b1be 9e31 42be
00000210: df7e e9be 33f9 15be e86c b8be 9215 afbc
00000220: 377c 43be bcd2 6abf cf79 e6be 6309 3dbe
00000230: 435b 473e e834 87bf bb47 893d 3e6b 32be
00000240: 80e1 06bc 67db 413f 0b63 7e3d 2546 78bd
00000250: 87e4 d6be c1c2 9cbd a807 1cbf cfba a8bf
00000260: a2d0 d7be c7ba 393e e5e9 92be eb63 03bf
00000270: 4f4c 553e 02ff 093f cc7e f0be 3c76 8c3e
00000280: eeb1 f0be eff3 8ebe 3c90 d3be f23f c0be
00000290: 260f 0dbe 9179 283f ac82 663e b1a5 1bbc
000002a0: 72da 63be 6792 043f 3e0f 9a3e 74f9 783c
000002b0: 6bad 2ebe bad8 133f 9302 cf3e d07f f13d
000002c0: a28c 92be 8f6c aa3f 6f2d bd3e b592 06be
000002d0: 0838 19bf fb3d 6a3f 1fc8 ecbc 2327 c33c
000002e0: ed6f cabe 5ec4 403f fb30 8fbe 8ae4 ccbe
000002f0: e57f 21bf 0ddf 4c3f 8f75 d7be 4cc7 673e
00000300: ce59 11bf e570 03be 736a 653f b859 1c3f
00000310: f296 2fbf 229d 42be b2e0 473e c5d6 dbbc
00000320: d049 28bd 6e91 c2be b3cf f83e c380 c53d
00000330: 4e61 35be 09fa 88bf 8024 c0bd ad96 0dbf
00000340: 9ba7 e23e 848a 8ebe 0900 68bf 6a6f d7be
00000350: 5b30 183e 2cad b2bc c19a 8ebe 758b 4d3e
00000360: 7fc7 39bf 0e29 2ebf 2d06 4bbf f162 5ebf
00000370: 972a c1bd c682 12bd f967 7fbe 3ca4 adbd
00000380: 832f 83bd fa08 abbe c3c7 1fbf c3a3 2abe
00000390: a31d b63e 3f9e 38bf 0002 5d3e 9730 063f
000003a0: ebce 153d bad2 fdbd 6f87 033f 1f34 203f
000003b0: 596c a4be 53e8 e83d 2060 903e f1a2 053f
000003c0: c616 18bf f46b 663f 69a3 1fbe 922d 433f
000003d0: 489d 29be 5b65 e63c 99e3 79bd 4e96 f93e
000003e0: f5ba ca3e 7562 e8bd 0b28 b03d b223 953f
000003f0: 7db5 333e 6a32 433e e357 2fbe d63e 2b3f
-0.31290042 -0.5667163 0.1409962 0.2955761 -0.18134184 -0.377484 0.32628703 0.19213471
-0.0991874 -0.42993113 0.26195747 0.25377342 -0.30551815 -0.84120256 0.02559866 0.03757577
0.06838293 0.09749903 0.29965588 0.3092813 -0.24058264 -0.096660905 0.24611142 0.3905835
-0.43152934 -0.0913339 0.04138263 0.3375608 -0.39860594 -0.11446947 0.108420424 0.42825148
-0.26205572 -0.14704874 0.0951224 0.1862629 -0.033578284 -0.0353389 -0.19295453 0.18247026
-0.20506802 -0.2709639 0.022598825 0.049527302 -0.30053908 -0.37511104 -0.46169955 -0.15858223
-0.7085611 -0.64997476 -0.663583 -0.6118983 -0.51157767 -0.4813903 -0.513635 -0.44776106
-0.42423594 -0.46509343 -0.45602998 -0.4212522 -0.5174733 -0.47318232 -0.5406416 -0.4638011
0.20010962 0.17346096 -0.014675535 -1.187984 0.1093068 -0.16102764 0.3241743 -0.7191573
0.2610003 -0.056898065 0.15831943 -0.77172387 0.4328597 0.012236131 0.47490647 -0.039141487
-0.478383 -0.31819066 -0.00857305 -0.17863022 -0.4046192 -0.31798276 0.26845407 -0.32456374
-0.5382696 -0.26445857 -0.26211718 -0.6434092 0.09941972 0.04182591 -0.0031296657 0.14471294
0.21534607 0.62508434 -0.024273064 0.1958063 -0.17791049 0.5918899 -0.51111776 0.11027487
-0.3898231 0.8845937 -0.30721828 -0.08450885 -0.4942801 0.38894612 -0.74269015 0.02594203
-0.18211538 -0.29680213 -0.25051746 -0.389162 0.09804036 -0.055309307 0.19280933 -0.4347074
0.10361783 0.0788804 0.2550829 0.52404237 0.40399894 0.1833334 0.25103632 0.48733482
-0.38089404 -0.48544902 -0.3464081 -0.1896424 -0.45604607 -0.14645843 -0.3602059 -0.02137259
-0.19090353 -0.91727805 -0.45014808 -0.18460612 0.19468407 -1.0563021 0.067031346 -0.17423722
-0.008232474 0.75725406 0.062106173 -0.06061377 -0.41971228 -0.07654334 -0.6094918 -1.318201
-0.42151362 0.18137656 -0.28694072 -0.5132434 0.2082989 0.53904736 -0.46971738 0.27433956
-0.4701075 -0.27920482 -0.4132098 -0.37548786 -0.1377531 0.65810496 0.22510785 -0.009499953
-0.22251299 0.5178589 0.30089754 0.015196193 -0.17058341 0.57752573 0.4043165 0.117919564
-0.2862292 1.331438 0.36948726 -0.13141902 -0.5985112 0.91500825 -0.028904019 0.023822373
-0.39538518 0.7529963 -0.27967057 -0.4001811 -0.63085777 0.8002785 -0.42081878 0.2263462
-0.56777656 -0.12836035 0.89615554 0.610744 -0.685897 -0.19005254 0.19519308 -0.026835809
-0.041086018 -0.3800158 0.48595962 0.096437 -0.177129 -1.0701305 -0.09381962 -0.5530804
0.44268498 -0.27840054 -0.90625054 -0.4207719 0.14862196 -0.02181109 -0.27852443 0.2007273
-0.7257003 -0.68031394 -0.793063 -0.8686972 -0.094319515 -0.035769247 -0.24942006 -0.08478591
-0.064055465 -0.33405286 -0.6241419 -0.16664033 0.35569486 -0.72116464 0.21582794 0.5241789
0.036574285 -0.123937085 0.5137853 0.6257953 -0.32113913 0.11372437 0.28198338 0.52201754
-0.5940975 0.90008473 -0.1558968 0.7624141 -0.16563904 0.028124502 -0.06100807 0.48747486
0.39595762 -0.11346904 0.086013876 1.1651518 0.17549701 0.190622 -0.1712337 0.66892755

net.2.bias f4 [128]
00000000: 5479 113f 123f 4bbf 0d3b 48bf 4d9d afbb
00000010: a549 e73d 0820 c1be 20a6 9b3d 5b24 03be
00000020: 0f1e 75be e7f7 f5bd 079a debe 0825 9d3e
00000030: cb71 4a3e fbee 0f3e d898 dbbc 0e76 163e
00000040: a8c6 9c3f 7035 213e 4e26 803e 2540 80bf
00000050: 771e 7abf fa1d ac3e 8696 b0be 54f1 103f
00000060: 38d1 33bd be2c 31be d8bb 4cbe 83d1 9c3e
00000070: 76cf 7ebe 4ab8 50bf fa94 0fbf c026 0dbe
00000080: 98ad ce3d 6947 b93e 4d1f 68bd 0f22 623e
00000090: 8036 4d3e 41b5 55bf f7f4 7abd dbc0 9d3e
000000a0: 1032 eb3e 744b 953e bd87 9f3e 9f15 43bf
000000b0: f463 efbc a78b 9a3d 87f2 a3be 72d8 063e
000000c0: 4b0b 13bd 7d7f 923c 1d51 17be 7cf6 0dbf
000000d0: 062e 87bd 963e 6abe d85a 62be 7295 333e
000000e0: 988d a03c 7475 42bd 02a0 ef3e 83e5 993e
000000f0: 0311 d83e c003 923e 84fe 1d3e 15b7 7b3e
00000100: 03a6 abbe e6ee 29be d556 22bf c8f4 ec3d
00000110: a787 863d 754b f839 fd93 863e 20e5 05be
00000120: 8d4f 153f 5322 ae3e f43d 88be 4e26 ab3e
00000130: 404b 203f 05df 05be 2f56 d7bc 9785 70be
00000140: 7d89 35be 4fef da3e 516d f7bd 567b a2bd
00000150: c98b d9be bc16 eebf ad63 8dbe e2e1 07bf
00000160: 54ee e93d 9469 cb3e 7fcc ec3d d302 5b3d
00000170: b863 1a3e 9818 5e3f f9ea 343e 3dc3 9ebc
00000180: b3bf b5be f43f ee3a c7b7 51be c3cd 093f
00000190: cea5 8d3d 0e4f 06be 95f1 6d3d 3294 00be
000001a0: e5ba 533e d287 a6bf 85cd 433f f881 383f
000001b0: 7bd9 34bf f7df b8be 6ec5 85be 83c7 1cbe
000001c0: 7856 2d3e 1e06 8dbe 5320 4fbf 95cf 29be
000001d0: 3596 95bd 46aa d43e 4265 99be 033e 373d
000001e0: c512 6b3e 2eef 33bb af35 17bd 7172 7ebe
000001f0: d5e2 11bf 4158 de3e e6fa 403f 346b 233f
0.5682576 -0.7939311 -0.78215104 -0.005359328 0.112933435 -0.3771975 0.07600045 -0.12806837
-0.23937248 -0.12010174 -0.4347689 0.30692315 0.19769971 0.14056008 -0.02680628 0.14693472
1.2248125 0.15743041 0.25029224 -1.0019575 -0.97702736 0.3361662 -0.3448984 0.5661824
-0.0439007 -0.17302224 -0.19993532 0.30628595 -0.24883828 -0.815312 -0.56086695 -0.13784313
0.10091704 0.36187294 -0.056670476 0.22083305 0.20040321 -0.83479697 -0.061268773 0.308112
0.45936632 0.2915913 0.31158248 -0.76204866 -0.029222466 0.07546168 -0.3202097 0.13168505
-0.03589944 0.017883057 -0.14777036 -0.5545423 -0.06600575 -0.22875437 -0.22104967 0.17537478
0.019598767 -0.047475293 0.46801764 0.30057916 0.4220048 0.28518486 0.15429121 0.24581559
-0.33525094 -0.16595039 -0.63413745 0.11570126 0.065688424 0.00047358466 0.2628478 -0.13075686
0.5832451 0.34010562 -0.26609766 0.33427662 0.6261482 -0.13073356 -0.026286213 -0.2348846
-0.17728229 0.42760703 -0.12081397 -0.07933681 -0.4248946 -1.8600688 -0.2761511 -0.53079045
0.114224106 0.39728987 0.11562442 0.05346949 0.15077102 0.8675628 0.1766776 -0.019380206
-0.35497817 0.0018177019 -0.20480262 0.5382959 0.0691639 -0.13116094 0.05809172 -0.12556532
0.20676763 -1.3010199 0.7648547 0.72073317 -0.7064435 -0.36108372 -0.2612719 -0.15310483
0.16927516 -0.2754373 -0.809087 -0.16583093 -0.0730404 0.41536158 -0.29960066 0.044736873
0.22956379 -0.0027455795 -0.03691643 -0.24848343 -0.56986743 0.43426707 0.7538284 0.63835454

net.3.weight f4 [128]
00000000: f2df 1141 ebfe 1f41 b1d3 2541 fddf ee40
00000010: 4bfa 5a41 0525 5b41 cbf5 bb40 3b28 3441
00000020: b9c9 4641 bd91 0441 fb9c f740 ea58 5a41
00000030: 3d0f 2c41 e7e1 0f41 3e1a 1841 c888 6441
00000040: 54d3 cc40 c1ff 2441 0d07 a540 239d dd40
00000050: bb40 b140 702e 4a41 f5a9 1a41 fd0a 0b41
00000060: e111 3b41 f9d0 1f41 8acb 4a41 10b1 3241
00000070: 4bd8 2241 f555 c540 4b36 dc40 524e 0641
00000080: a322 4241 c7d0 d741 55b0 b240 6c49 1d41
00000090: db47 3e41 7b4d 0f41 3d8b 0e41 1466 1e41
000000a0: 3aed 3241 976f b940 e30c 2b41 66ab 1b41
000000b0: 5d16 5a41 4837 2c41 b010 2041 7f3e 4141
000000c0: 2113 d640 c611 6241 7242 af40 ea73 1c41
000000d0: e4c9 b640 8c2e 0f41 8276 2341 e812 2641
000000e0: 9ab2 2641 af13 e940 10cc 3741 05e1 e440
000000f0: 1b4d 5241 ee64 4e41 f8c9 3941 b199 5c41
00000100: 0995 6841 f041 ef40 1967 ec40 1ba0 1341
00000110: 2ed4 5c41 a15e ee40 8438 0541 94db 0941
00000120: a0dd e240 5bbb 1841 4315 6741 ca9e 2641
00000130: 14aa 0141 5cac f140 f110 7941 42c6 6d41
00000140: 45d8 2441 3105 d340 6f51 4241 4853 3541
00000150: 560c 6441 5cbc fc40 3830 f240 d721 0d41
00000160: 6b0e 2f41 b1a5 1d41 e88e 2241 f5a7 f740
00000170: 2a8b 9341 d884 1541 e666 2541 b746 3141
00000180: 36d4 5441 482f 5d41 1e3a 1b41 fedb 0641
00000190: 420d 5a41 2f13 6641 725b d040 1b18 0941
000001a0: df1f 4941 6911 2841 b85f 1a41 286c 0b41
000001b0: 7db3 cc40 1dc0 1d41 f7d3 3d41 97d6 6d41
000001c0: b348 3341 3086 0441 a02e 9540 9fc3 5141
000001d0: 2f04 4b41 82e5 3a41 9983 8041 b21e 0441
000001e0: 12b2 f740 c13b 0441 2488 2a41 4069 d440
000001f0: e0cb b840 755e af40 7d55 0741 4f2a 1641
9.117174 9.999736 10.364182 7.4648423 13.686107 13.696538 5.873754 11.259822
12.424249 8.285581 7.7379127 13.646708 10.75372 8.992652 9.506407 14.283394
6.400797 10.31244 5.1571107 6.9254317 5.5391517 12.636337 9.666493 8.690183
11.691865 9.988519 12.674692 11.168228 10.177806 6.166743 6.8816276 8.394121
12.133456 26.976942 5.584025 9.830425 11.892543 8.956416 8.908994 9.899921
11.182917 5.794872 10.690646 9.729345 13.63046 10.763496 10.004074 12.077758
6.689835 14.129339 5.476861 9.778299 5.712145 8.948864 10.216433 10.379616
10.418604 7.283653 11.48732 7.152468 13.143825 12.899641 11.611809 13.787522
14.536386 7.476799 7.387585 9.226588 13.801802 7.4490514 8.326298 8.616108
7.089554 9.545741 14.442691 10.413767 8.104023 7.55229 15.566636 14.860903
10.3028 6.5943837 12.144881 11.332832 14.253012 7.897993 7.568386 8.820762
10.94102 9.852952 10.159889 7.7392526 18.442951 9.344933 10.337622 11.079764
13.301809 13.824043 9.701689 8.428709 13.628237 14.3796835 6.5111628 8.568385
12.570281 10.504251 9.648369 8.713905 6.39691 9.859403 11.864249 14.86489
11.205249 8.282761 4.6619415 13.110259 12.688521 11.681032 16.064257 8.257494
7.740487 8.264588 10.658237 6.637848 5.774887 5.4802804 8.458371 9.385329

net.3.bias f4 [128]
00000000: 915f 943f 546c bfbf 637e 19c0 114c 8540
00000010: 1f1d 4e3f a7d5 34be f48d bdbf b88e 953f
00000020: 3fbb 263f b1e2 06c0 e072 82bd 27ab 2bbd
00000030: 26f8 3040 a7c5 31bf 99ec c3bf 014e b73f
00000040: 5171 88bf cde5 9ac0 3c6b 24c0 6161 48c0
00000050: e140 21c0 bb5f 6cbf d4b2 453e f0d2 4240
00000060: 395c 8d3f 1af8 99bf 7f63 61bf 1958 1840
00000070: 90c0 893c 1faf 68c0 ae6d 66c0 059f e9bf
00000080: ecb5 13c0 d442 a041 d8d2 1ac0 2ec4 71be
00000090: 2bcc 763f bdde 02c0 7542 6740 2eb6 8fbe
000000a0: 7871 c23f ce97 7ac0 0590 a6bf e74c d8bf
000000b0: ed93 203f 5660 3740 0752 403f 9073 113f
000000c0: 4442 05c0 f560 543f 9e1a 6cc0 5e6d bbc0
000000d0: 1f5d 09c0 0225 1540 6a57 60bf 53e9 03bf
000000e0: 4086 0cc0 966f e23f 81d9 2c3f 8a89 1bbf
000000f0: 302c a3bf b081 efbe 8fd8 a13f 7a10 eabe
00000100: 3199 a93e b6db 23c0 19ec ccbf a925 22c0
00000110: 6801 4840 2056 19c0 de84 31c0 1dda 16c0
00000120: 2f43 2cc0 fa2d 143f 2606 15bf 45ed d13f
00000130: 2b33 cb3e c320 9fc0 05c4 0cbf 53ef a340
00000140: 636a d93f c1d7 94bf b623 55be 8230 c23f
00000150: ec2b abbf 452b 7dc0 bed8 07c0 f72a a9bf
00000160: 6213 1f3f d5a9 a13f e91b 903e 9b90 74c0
00000170: 7ca9 a53f 44e1 23c0 98e7 2540 d1e6 3f3f
00000180: 32b5 8540 5ed0 013f 2008 2a3e 365d 94bf
00000190: 5e94 bb3f 1f14 113e 8ed9 80c0 c4d6 b5bf
000001a0: 1e87 5840 db90 99bf 3271 9d3f 032f 0e40
000001b0: 94a3 7dc0 2b1a c3bf 37c6 d3bf 5478 983f
000001c0: b70b 3cc0 ca9e 19c0 6fc0 66c0 1c57 92bf
000001d0: 20aa 6b3d 202b 663f 689d 8a3f 4c69 58c0
000001e0: cc59 7340 af4a 77bf 80e8 b8c0 37e1 7bc0
000001f0: bddb 6bc0 7463 b8bf dd96 823f b73e 593f
1.1591665 -1.4954934 -2.398339 4.1655354 0.80513185 -0.17659627 -1.4808946 1.1684179
0.65129465 -2.1075861 -0.06369567 -0.04191127 2.7651458 -0.6944222 -1.5306579 1.432068
-1.0659581 -4.840552 -2.569045 -3.1309435 -2.519585 -0.92333573 0.19306499 3.0441246
1.1043769 -1.202884 -0.88042444 2.380377 0.016815454 -3.6356885 -3.6004443 -1.8251654
-2.3079786 20.03263 -2.419119 -0.23609993 0.96405286 -2.0448449 3.6134312 -0.2806868
1.5190878 -3.9155154 -1.3012701 -1.6898469 0.62725717 2.8652549 0.75125164 0.5681696
-2.0821695 0.82960445 -3.6891246 -5.8571005 -2.1463087 2.3303838 -0.87633383 -0.515279
-2.195694 1.7690303 0.67519385 -0.6075674 -1.274786 -0.4677863 1.2644213 -0.45715696
0.33124688 -2.560285 -1.6009551 -2.5335486 3.1250858 -2.3958817 -2.7737346 -2.3570626
-2.6916006 0.57882655 -0.58212507 1.6400534 0.39687476 -4.972749 -0.549866 5.1229644
1.6985592 -1.1628343 -0.20814404 1.5171053 -1.3372779 -3.955766 -2.122604 -1.3216237
0.6213895 1.2629954 0.28146294 -3.821326 1.2942348 -2.5606241 2.5922604 0.7496157
4.1783686 0.5070857 0.16604662 -1.1590946 1.4654653 0.14167832 -4.026557 -1.4206166
3.383247 -1.1997331 1.230017 2.2216194 -3.963109 -1.5242361 -1.6544865 1.1911721
-2.938215 -2.4003167 -3.6054952 -1.1432834 0.05753529 0.89909554 1.0829287 -3.3814268
3.8023558 -0.96598333 -5.7783813 -3.935621 -3.6852868 -1.4405351 1.020229 0.8486132

net.3.running_mean f4 [128]
00000000: 90f1 353f 5d7f 7640 a246 92c1 ac32 0a40
00000010: 7202 87c0 94d3 cdc0 16b0 0ac2 efb5 6141
00000020: dd2a 8ec0 80ca b3bf 3f54 6bc1 0dd0 96c0
00000030: 2e2f 14c0 16b7 02c2 be60 9dc1 c06d 1e3f
00000040: 84b9 a340 278c 03c1 7eaf b0c1 4650 a4c1
00000050: 348a 3f3f b727 5ec0 ba8e b4c1 5303 c641
00000060: 4250 67c1 6970 6940 983d 1341 256b 0641
00000070: 2948 dfc0 05d9 75c0 849b 87c1 8cb5 a1c1
00000080: d7ea 66c1 f726 2841 34f6 b4c0 7960 b9c0
00000090: 303f 5d3f 3554 9dc1 ccf7 5fbf f77d d5bf
000000a0: b58a c440 8d9a 94c1 f869 09bf f5b7 9940
000000b0: 937b d6bf d195 f340 afdb ccc1 cb9b c73f
000000c0: 56c5 1fc1 f4ec 2a3f d21a 1440 f13c 2ec1
000000d0: 7f53 b3c1 6b68 bac1 9485 fbc1 8fe2 8d40
000000e0: 69f5 a5c0 95a8 03bf 51e7 1f41 eda9 3241
000000f0: b9b1 5ac1 f260 11c0 6340 873f 09cb e8c0
00000100: f823 11c1 20dd af3f 6776 4cc2 fc9b 7f40
00000110: e1d2 3140 bc52 7ec0 9962 5040 5322 89c1
00000120: 99dd 16c1 df52 e4c1 8153 e5c0 1eeb 8040
00000130: 2970 8741 e54e 4140 c9d8 6a3f a7f9 14bf
00000140: 8553 cec0 478f 4ac1 12f7 a9c1 7a65 a1c0
00000150: 5520 f9c0 65d3 5541 001e 1f41 0d07 3ec0
00000160: b173 f7c0 c6a4 b241 d2ad af40 2d4a 77bf
00000170: 5f04 113f 039a b0c0 5eef b640 f01e 7340
00000180: 4d78 fd3f cd50 4cc1 38c8 8dc1 e74d 7dc0
00000190: 7091 bdc0 93ad 92c0 0cb1 3941 9168 903f
000001a0: f847 b0c0 8b6a 0dc2 c424 a4bf 465e da40
000001b0: 6efa 1dc1 b34e 6341 9258 edc0 a1af 153f
000001c0: da2a 6ac1 9527 95c0 4867 8f41 7232 3dc0
000001d0: bad9 69c0 60f7 b4bf 9930 b63e e14c 56c1
000001e0: bbcb 2bc2 c9ea 463e 7098 0fc0 711c 08c1
000001f0: 7174 9d3c 8fea 1340 c579 dfc1 c1cf 65bf
0.7107172 3.8515236 -18.284489 2.1593428 -4.2190485 -6.4320774 -34.67196 14.106917
-4.4427323 -1.4046173 -14.708068 -4.712897 -2.3153796 -32.678795 -19.672237 0.61886215
5.116396 -8.221717 -22.08569 -20.539196 0.74820256 -3.471174 -22.56969 24.751623
-14.457094 3.647486 9.202538 8.401158 -6.9775586 -3.8413708 -16.950935 -20.213646
-14.432334 10.509513 -5.655054 -5.7930264 0.8642454 -19.666117 -0.87487483 -1.6679066
6.141932 -18.575464 -0.5367732 4.8037057 -1.6756462 7.612038 -25.607267 1.5594419
-9.985678 0.6676781 2.314137 -10.889878 -22.41577 -23.300985 -31.440224 4.433906
-5.1862073 -0.5142911 9.993974 11.166486 -13.668389 -2.271542 1.0566524 -7.2747846
-9.071281 1.3739357 -51.115627 3.9938955 2.778496 -3.9737997 3.256018 -17.14176
-9.429101 -28.540464 -7.1664433 4.028701 16.929766 3.0204403 0.9173704 -0.5819344
-6.4476953 -12.65998 -21.24564 -5.0436373 -7.785197 13.36411 9.944824 -2.9691803
-7.7328725 22.330456 5.4899683 -0.9659756 0.56647295 -5.5188003 5.7167196 3.7987633
1.9802338 -12.769727 -17.722763 -3.9578798 -5.9240036 -4.5836883 11.605724 1.1281911
-5.5087852 -35.354046 -1.282372 6.824008 -9.87364 14.206714 -7.417062 0.58471113
-14.635462 -4.661082 17.92543 -2.956204 -3.653914 -1.4137993 0.35583952 -13.393769
-42.948956 0.19425501 -2.243679 -8.506944 0.019220563 2.3111913 -27.934458 -0.8977013

net.3.running_var f4 [128]
00000000: 6c17 3541 d7c2 b03f f331 ad40 dfa2 e240
00000010: 370b 2040 84a6 6040 3509 b541 fe68 0141
00000020: bac3 f940 3874 e141 100c b741 b0d9 cc40
00000030: 6a39 ca40 a667 8141 c8b8 9241 57b1 de40
00000040: 702c 1742 34a2 bd40 b2f6 d441 7a14 fc40
00000050: 09f1 a741 fd0d 0e41 5ec4 9041 d8a7 8641
00000060: 12c8 4641 7c67 9040 6887 1840 8cd0 7941
00000070: f434 bd40 29a3 2b41 8979 2641 3ed7 bf40
00000080: b333 5041 1b18 9b40 94c8 d541 8e91 4741
00000090: 0118 1540 0ea1 e341 fb0a 5141 13ef b040
000000a0: 04e1 df3f 0726 2642 9d98 1941 7fe7 d340
000000b0: 2ff6 0041 3826 0041 9243 8641 b00e 043f
000000c0: aea5 0b41 b6c2 1840 1bdc 5041 cdb3 7c40
000000d0: 1e2c 9c41 ff76 a341 4edc 8940 dd9a 0741
000000e0: 1be3 2941 2be5 3b41 035c f640 8d4f ad42
000000f0: 4a9f 4441 64ac 3441 a4a3 3741 bbc7 1f41
00000100: 3ac8 8341 f66f 2341 fb90 1f42 6715 4941
00000110: b092 a440 caa2 7241 cf13 cf41 1083 0d41
00000120: 73f0 9041 179a 5f41 5eee 0240 9bad 1a41
00000130: 1975 4941 2118 b241 0820 8240 3791 1540
00000140: eb5c 1641 44bf 5841 d5d3 1a41 35a0 9541
00000150: dcd2 bb40 8a72 ca40 43b3 9040 8ab1 0041
00000160: f615 2d41 920c 0341 f0db ee40 7b36 5741
00000170: 1aff 3a41 9775 3141 f108 7341 1268 1f41
00000180: 0eb0 4540 cc1e 6b41 f06a 5841 3f6d 8b40
00000190: bd36 6740 a634 3940 ee60 f740 2468 8641
000001a0: 4b8b 2d41 8c08 9041 6efd 0b41 7d42 3041
000001b0: 3104 4b41 d3a5 fb40 74bf b041 daba 7440
000001c0: 4aa8 f041 c94f cb40 2877 0f42 cb7b 1940
000001d0: 8a8f bc40 616f 9740 6a56 6340 4e13 0041
000001e0: 6961 8741 bc63 ba40 6aec f040 a680 1141
000001f0: 7c7a 5440 e117 a341 8c99 a641 85cd d540
11.318218 1.380946 5.4123473 7.0823817 2.5006845 3.5101633 22.629496 8.088133
7.8051424 28.181747 22.88089 6.401573 6.3195086 16.17561 18.340225 6.959148
37.793396 5.92605 26.620457 7.8774996 20.992693 8.878415 18.095882 16.831955
12.423845 4.5126324 2.3832645 15.613415 5.912714 10.727334 10.404672 5.9950247
13.012622 4.8466926 26.722939 12.473036 2.32959 28.45364 13.065181 5.529184
1.7490544 41.537136 9.599759 6.622009 8.060103 8.009331 16.782993 0.5158491
8.727949 2.3868842 13.053737 3.9484742 19.521542 20.433104 4.3081427 8.475308
10.617946 11.743449 7.698732 86.65537 12.288889 11.292088 11.477451 9.986262
16.472767 10.214834 39.891582 12.567725 5.142906 15.164743 25.884672 8.844498
18.117407 13.97512 2.0457988 9.667384 12.591088 22.261782 4.06641 2.3369882
9.397685 13.546696 9.676717 18.703226 5.8694897 6.326482 4.5218825 8.0433445
10.817862 8.190569 7.464348 13.450801 11.687281 11.091208 15.189683 9.962908
3.0888705 14.695019 13.526108 4.3570857 3.612716 2.8938384 7.730582 16.80085
10.846507 18.004173 8.7493725 11.0162325 12.688523 7.863992 22.093483 3.8239045
30.082172 6.3534894 35.866364 2.3981807 5.892522 4.732346 3.5521493 8.004713
16.922564 5.8246746 7.528859 9.093908 3.3199759 20.38666 20.824974 6.681338

net.5.weight f4 [1, 128, 4, 4]
00000000: c007 2cc1 5422 28c1 7976 1ec1 8311 1dc1
00000010: abdf 2cc1 f5ea 28c1 f481 1ec1 a81b 1ec1
00000020: 5f29 24c1 75a3 20c1 7d57 16c1 d820 15c1
00000030: 1687 23c1 d02d 20c1 66a2 15c1 0d6f 12c1
00000040: e91b 1341 43a7 0f41 f5d8 0e41 34ee 2141
00000050: 00a0 3041 1d81 2b41 aa7d 2b41 41cb 3e41
00000060: 82b4 4041 023f 3d41 d95f 3e41 c045 5041
00000070: c12e 3d41 8b8d 3e41 b2e1 4141 9989 5341
00000080: 86ed 35c1 7b92 5ac1 ba53 5dc1 3fe3 68c1
00000090: d558 44c1 e37b 6cc1 180d 71c1 0e4e 71c1
000000a0: 7f1a 4ec1 f94f 74c1 1108 78c1 c44e 78c1
000000b0: 4d9f 43c1 34a2 67c1 234c 68c1 eb17 5dc1
000000c0: ed51 2f41 f514 0741 057b 0a41 91d0 2c41
000000d0: ca4e 3541 44cb 0c41 4961 0e41 39b9 3041
000000e0: 2c7c 4041 1f35 1741 1ef2 1541 fb1d 3541
000000f0: 3bdb 4041 2b8d 1541 4f32 1541 b6c4 3341
00000100: cb9b 29c1 00a4 47c1 841c 45c1 3a80 27c1
00000110: 2b91 38c1 44a7 59c1 4f20 56c1 34af 3bc1
00000120: 5a3d 2dc1 4990 52c1 d46d 50c1 4dd4 35c1
00000130: 3f94 0ac1 4462 3dc1 148b 38c1 4781 10c1
00000140: 0a1e 2ac1 b3cf 41c1 28a3 3cc1 968f 2dc1
00000150: 9b2a 4ec1 653a 65c1 f1e4 60c1 a710 4fc1
00000160: 199d 3fc1 d2fa 54c1 5b28 52c1 8fed 3fc1
00000170: 4de8 2bc1 3df2 3fc1 4880 3bc1 5340 27c1
00000180: db81 9e40 1c70 bd40 56e6 cc40 dcc2 e440
00000190: 1d80 e240 39cc f540 0c7e 0041 17e9 0b41
000001a0: b416 0141 8d27 0941 e36e 0d41 6e9e 1541
000001b0: b0ab 0c41 dd51 1741 8b24 1941 f9e5 1f41
000001c0: c01b e940 ea27 b440 3b64 b440 742d e640
000001d0: 0c43 1341 9275 f840 86b7 fb40 31f2 1941
000001e0: 14d7 2c41 9a9e 1a41 a3ed 1a41 97a6 3641
000001f0: 1f5b 3b41 5dd0 2b41 c501 2b41 b9f5 4941
00000200: 59e1 3341 bad3 3741 4dca 3641 0a2a 3841
00000210: 4a3e 3141 384b 3141 9e32 3041 4d8c 3041
00000220: aa7f 4341 a0bf 4541 9ddc 4041 abe3 4641
00000230: cca1 3f41 2465 4041 d485 3a41 1f5e 3b41
00000240: b553 0541 082c fb40 9fd2 f340 c51d f340
00000250: 75a3 0041 1220 ed40 7cad e640 00fa e840
00000260: de1e 0041 615a e840 1851 e740 2677 ea40
00000270: e356 0341 00bb ef40 a423 ee40 c6f1 ef40
00000280: 4fbe ec40 6883 0141 52b2 0341 2235 f840
00000290: 6910 ff40 b3ac 0741 f9c2 0941 9cd8 0641
000002a0: 6d1a 0241 83aa 0941 18c5 0c41 f26b 0b41
000002b0: 7ce0 f540 0625 0441 fa68 0641 7716 0441
000002c0: 3803 4541 3876 2a41 eb3a 2541 5cc2 3341
000002d0: d05a 3c41 60d4 2141 3baa 1e41 88c9 2a41
000002e0: 8483 4541 1d4f 2f41 d6f8 2841 97c3 3341
000002f0: 20b6 3e41 5949 2e41 63db 2b41 2435 3741
00000300: 7c8c 0cc1 8abe 27c1 ebcf 20c1 0e30 3fc1
00000310: bcfc 0cc1 6d40 2ac1 b240 23c1 d582 39c1
00000320: dec0 0fc1 d975 2dc1 33ba 25c1 5883 39c1
00000330: ce28 10c1 af99 2ac1 b068 21c1 652b 2ac1
00000340: 3565 fb40 87a8 fb40 0a88 0341 b2f8 0f41
00000350: efbf 0941 6a47 0941 aeee 0e41 c2b3 1c41
00000360: 2c7e 0e41 288c 1041 4d89 1741 7d48 2641
00000370: 4461 1241 beca 1741 7667 1e41 4331 2d41
00000380: efb8 3441 6762 3241 4f31 2f41 541f 3c41
00000390: 3446 2341 7a09 2441 7f30 2241 221a 3241
000003a0: a6dc 1741 0004 1d41 2181 1c41 960f 2e41
000003b0: 0ac9 1541 5c24 1f41 050d 2141 4e24 3241
000003c0: fb60 3f41 f983 3b41 902f 4341 4aea 3d41
000003d0: 1312 5041 5926 4b41 6b59 5541 fcf7 5041
000003e0: 9fd6 5341 5c5d 5041 0c14 5741 93b5 5941
000003f0: 104a 5741 5fd3 5541 da6e 6041 7817 6341
-10.751892 -10.508381 -9.903924 -9.816775 -10.804606 -10.557363 -9.906727 -9.881752
-10.2601 -10.0399065 -9.396359 -9.3205185 -10.22048 -10.011185 -9.352148 -9.152112
9.194314 8.978335 8.927968 10.120655 11.0390625 10.719022 10.71818 11.924623
12.044069 11.827883 11.8984 13.017029 11.823915 11.909556 12.117601 13.221093
-11.370489 -13.660762 -13.832941 -14.55548 -12.2716875 -14.780246 -15.065697 -15.081556
-12.881469 -15.269525 -15.501969 -15.51923 -12.226392 -14.4771 -14.518588 -13.818339
10.957501 8.442616 8.655034 10.80092 11.331736 8.799625 8.898751 11.04522
12.030315 9.450469 9.371611 11.319819 12.053523 9.346965 9.324782 11.235525
-10.600535 -12.477539 -12.319462 -10.468805 -11.535441 -13.603336 -13.382888 -11.730274
-10.827478 -13.160226 -13.0268135 -11.364331 -8.661193 -11.836491 -11.533955 -9.031562
-10.632334 -12.113208 -11.789833 -10.847555 -12.885402 -14.3267565 -14.055894 -12.9415655
-11.975854 -13.311235 -13.134852 -11.995498 -10.744214 -11.99664 -11.718819 -10.453204
4.9533515 5.919935 6.403117 7.1487865 7.078139 7.6811795 8.030773 8.744407
8.068043 8.572156 8.839572 9.351179 8.791916 9.457486 9.571422 9.993646
7.2846375 5.6298723 5.637235 7.1930485 9.203869 7.764352 7.866153 9.621629
10.802509 9.663721 9.683017 11.415671 11.709746 10.73837 10.687932 12.622491
11.2425165 11.489191 11.42439 11.510263 11.077707 11.080864 11.012358 11.034253
12.218668 12.359283 12.053861 12.430583 11.977001 12.024693 11.657673 11.710479
8.332936 7.849125 7.6194606 7.597384 8.0399065 7.410165 7.2086773 7.2805176
8.007536 7.2610326 7.228649 7.3270445 8.208713 7.491577 7.4418507 7.4982634
7.398231 8.094582 8.231035 7.756486 7.970753 8.479663 8.610101 8.427883
8.131452 8.604129 8.798119 8.713854 7.683653 8.259039 8.400629 8.255485
12.313286 10.653862 10.326884 11.234951 11.772171 10.114349 9.91656 10.674202
12.344608 10.956815 10.560751 11.235251 11.919464 10.892907 10.741061 11.450474
-8.784298 -10.484018 -10.050761 -11.949232 -8.811703 -10.640729 -10.203295 -11.594441
-8.984587 -10.841271 -10.357959 -11.594566 -9.009962 -10.66252 -10.088058 -10.635594
7.8561044 7.864322 8.220713 8.998217 8.609359 8.579935 8.933271 9.793886
8.905804 9.034218 9.471021 10.392697 9.1487465 9.486998 9.900259 10.824527
11.29515 11.149024 10.949538 11.757648 10.204639 10.252314 10.13684 11.13138
9.491369 9.813477 9.781526 10.878805 9.361582 9.946377 10.065679 11.133863
11.961177 11.71972 12.199112 11.8696995 13.004413 12.696862 13.334331 13.060543
13.239898 13.022793 13.442394 13.60683 13.455582 13.364104 14.027063 14.19323
